models/cnn_digits.ckpt (torch_old, 119171 bytes, 14 tensors)

layer1.0.weight f4 [16, 1, 5, 5]
00000000: ad7e 3bbd 4f5d 033e b0d3 5c3d cb9b 0f3d
00000010: c733 93bd a28d efbb 1a8e d83d ea20 27be
00000020: 17f4 27be 9d2c 0d3e 0348 933d e3a2 9abd
00000030: e86a 6fbd dd8d 233d 4d14 153e ab35 2bbd
00000040: a2b6 7e3d 50b2 4a3e d604 7c3e c97d 9c3d
00000050: 3bda 233e 2460 1b3d a607 cebd 8616 d0bd
00000060: 0881 54be b9fc ad3d 6a13 d3bd e159 22be
00000070: 79f6 393e 2129 e3bd 9c31 4cbd 0da9 db3d
00000080: e1f5 203e fb58 64bd a32f a2be 8846 13be
00000090: 0dec 50be d679 cbbd 8409 413e 2587 d8bd
000000a0: 8d87 31bc 452e 243e c9cf 353e 1d6a 593e
000000b0: 6688 033e 664f 063e 9f06 82be d8d7 77be
000000c0: c426 a1bd 0b71 fa3d 5ad3 9fbc 5c99 cb3d
000000d0: db7a 22bd b7f6 943d 1ad5 473d 1ea4 2a3e
000000e0: 1b8f ce3c 5024 e43d b525 02be 9c81 33be
000000f0: f0cd cabd dfcb 4c3d 9627 90be 97b3 20be
00000100: eb03 a3bd 64da e2bc 01ff a5be edec 24be
00000110: 0bd5 9f3d 688a 7b3c a4b7 82be af44 babd
00000120: 1437 433e 29be 82bc 7da2 263e 27eb 0a3e
00000130: 1c4c 3bbe 0797 a2be b23d bcbd 3e28 28be
00000140: d379 e3bb b058 633d 2461 36be ba0e cc3c
00000150: e534 483d 9c2c 5f3e b5e0 793d 189a 003e
00000160: f636 80bd 26e9 ab3d 7371 f53d 03c3 793e
00000170: 114f fc3c c3a1 8d3d 10ab 8fbd b116 81bc
00000180: ae4b 00be 219e 193e e857 b33d fc87 433e
00000190: f64a 90bd d548 00be 8a74 1bbe 1e52 2abd
000001a0: 62ff 71bd 4a81 80be 9734 84bd e226 0ebe
000001b0: 7859 4cbe 3220 7abe 9331 d6bc 9625 fc3c
000001c0: 481c 5d3d 2d52 2b3d ade9 01be d2cb 3e3e
000001d0: 4152 253e aa39 a43c 8dd9 523e 744a 1e3d
000001e0: 4d32 293d a8b4 ffbd 81fb 7ebd eae0 52bd
000001f0: 85be 633b c4fd 083e 9325 6fbe 8c7b 12be
00000200: 1c15 7cbc ce67 123d 99d0 203e d788 73be
00000210: 41ed 00be a43a a73b 6a42 2d3e 9e21 e13d
00000220: 6ffb 5dbe 52a4 c2bd 3b12 62bd 8a42 ef3d
00000230: ee4f 643c c561 65be 6e8a ffbc b5e7 cc3c
00000240: f4b9 d63d 10b2 2bbe 5bd8 aabc 756b acbd
00000250: cb15 2ebd 3584 8f3d f828 1a3d 318a b83d
00000260: 3cd2 41be 5d12 fa3b 7b23 5abd c14d 073e
00000270: 2565 483d f2bc 90bd 16df 4cbe 0366 3dbe
00000280: 2d9f f43d 30f2 15bd 5460 f83d d433 dbbd
00000290: 0817 96bd 6d67 783d feb0 243e 6fcb 4abe
000002a0: dc13 3dbe 8337 b2bd a0d7 1e3e 7896 77bd
000002b0: 57e7 c6bd a638 f2bd 63f4 1fbe e602 b53d
000002c0: 3a49 62be ac73 d8bd 79bf 413d 87e2 de3c
000002d0: e032 63be 8ad9 cbbd a435 3c3e 6109 de3c
000002e0: b99f 1a3d d22f eabd c85a 1b3e f3f1 4e3e
000002f0: ee94 b7bc fbe1 7fbd 6459 31bc 64c8 213e
00000300: 5c8d 08bb 15a6 aabd bf86 6fbe cb0e 163e
00000310: 0a37 edbc 9475 4cbe 22a9 c3bc a837 233e
00000320: fa6b 82be 25c9 2e3d 199d ce3d 6ba1 1fbe
00000330: 4c67 c8bd 166e 573c 1828 823d 5964 82bc
00000340: 1b18 f53d aee3 803e 27aa 083d 75ab 133e
00000350: 8a69 dd3d a4b2 a23c 88e2 d2bd fc65 b1bc
00000360: fc86 e93a 46b8 d2bd 823c 26be 4b64 46be
00000370: becc 85bd c496 47bd 304b 20bd 4d34 8dbd
00000380: ab41 2e3d 7eb9 63bc 2808 83bd fb0e 0e3e
00000390: 2d15 953d 562b 87bd e784 a9bd 14eb 79be
000003a0: f482 04be 987d e43d a349 ed3d 4ae6 593e
000003b0: 8f09 3c3c d957 a0be 0c15 c3bd b391 e03d
000003c0: c812 65bd be84 4e3e 3415 84bd 2e81 1abe
000003d0: c5d6 f9bd f713 81bd 3e0d 403d ca4d 793d
000003e0: 0c92 7e3d d49c 1bbd 3cf6 fb3d 254c 0a3e
000003f0: 62e5 42be 32ee 44bc f0f5 3a3e 34b3 44bd
-0.045775104 0.12828563 0.05391282 0.035060685 -0.0718761 -0.007310585 0.10573979 -0.1632115
-0.16401707 0.1378655 0.071914695 -0.075505994 -0.058451563 0.039930213 0.14558525 -0.04179923
0.06218589 0.19794583 0.2461122 0.07641179 0.16001217 0.037933484 -0.100600526 -0.10160546
-0.20752347 0.08495469 -0.10306437 -0.15854599 0.18160428 -0.11091829 -0.049852 0.10725603
0.15718795 -0.05574892 -0.3167697 -0.14382374 -0.20402546 -0.09935348 0.18851286 -0.10572652
-0.0108355405 0.16033275 0.17755045 0.21231885 0.12845 0.13116226 -0.25395676 -0.24203432
-0.07868722 0.122285925 -0.01950996 0.0994136 -0.039667945 0.072736196 0.048787214 0.16664168
0.025214722 0.111397386 -0.12709697 -0.17529911 -0.09902561 0.049999114 -0.28155202 -0.15693508
-0.07959732 -0.027692027 -0.32421115 -0.16106005 0.078043066 0.015352823 -0.25530732 -0.090951316
0.1906398 -0.015959816 0.16272922 0.13566266 -0.18290752 -0.3175585 -0.09191455 -0.16421601
-0.006942013 0.0555045 -0.17810494 0.024909366 0.04887857 0.21794361 0.061005313 0.12558782
-0.06260483 0.08394079 0.11984529 0.24390797 0.03079942 0.06915619 -0.070150495 -0.01575789
-0.1252887 0.15001728 0.08757001 0.19094843 -0.07045548 -0.12527783 -0.15181175 -0.04158222
-0.059081443 -0.2509864 -0.06455343 -0.1388202 -0.19956005 -0.24426344 -0.026146686 0.030779641
0.05398205 0.041826416 -0.12686796 0.18632439 0.16144659 0.020047028 0.20590802 0.038645223
0.041307736 -0.12485629 -0.06225157 -0.051484026 0.003475101 0.13378054 -0.23354177 -0.14304942
-0.015385892 0.035743527 0.15704574 -0.23782669 -0.12590505 0.005103426 0.16919866 0.1099274
-0.21677946 -0.09503998 -0.055193167 0.11682613 0.013935072 -0.22400577 -0.031193938 0.02501283
0.104846865 -0.16767144 -0.02085512 -0.08418933 -0.042501252 0.07007638 0.037636727 0.09010733
-0.18927854 0.0076315836 -0.053256493 0.13213255 0.048924584 -0.070672885 -0.20006976 -0.18495946
0.11944423 -0.03660792 0.12127748 -0.10703245 -0.073286116 0.06064551 0.16083142 -0.19804166
-0.18464607 -0.08701994 0.15511942 -0.060446233 -0.09712093 -0.11827211 -0.1562057 0.088384435
-0.22098246 -0.10568938 0.047301743 0.027207626 -0.22187376 -0.09953602 0.18379837 0.027104082
0.03774998 -0.11434902 0.15171349 0.20209484 -0.022409882 -0.06247137 -0.010824535 0.15799099
-0.002083621 -0.08332459 -0.23391245 0.1465408 -0.028956909 -0.19966727 -0.02388436 0.159392
-0.25473005 0.042672295 0.10088558 -0.1558892 -0.09785327 0.013148805 0.063553035 -0.01591699
0.119674884 0.25173706 0.033365395 0.14420874 0.108111456 0.019860573 -0.10297114 -0.021655075
0.0017816718 -0.102890536 -0.1623402 -0.19374196 -0.06533192 -0.048727766 -0.039134204 -0.06894741
0.042543095 -0.013899205 -0.0639804 0.13872902 0.072794296 -0.066000625 -0.08277302 -0.24406081
-0.1294058 0.111567676 0.11586311 0.21279255 0.011476888 -0.31317022 -0.09525499 0.1096529
-0.055926114 0.20167825 -0.06449357 -0.1508834 -0.12199167 -0.06302636 0.04688763 0.0608652
0.062151 -0.03799136 0.12302825 0.1350561 -0.19032815 -0.012019681 0.1825788 -0.048022464

layer1.0.bias f4 [16]
00000000: 1112 4fbe 6c89 1d3d 16ff c6bd 3e32 f7bd
00000010: a4ba 63bd 0da4 db3c b85a c93d 40a6 d03d
00000020: 8e64 46be 8476 c8bc 5504 f83d f3cd 303e
00000030: ffbb 093e 4620 16bd 2f7f d4bd 632c 7c3e
-0.20221736 0.038461134 -0.097166225 -0.1207013 -0.055597916 0.026811624 0.09831756 0.1018796
-0.19374296 -0.024470575 0.12110201 0.17266063 0.13450621 -0.036651872 -0.10375821 0.24626307

layer1.1.weight f4 [16]
00000000: 5272 2f3f fdc7 4e3f e6ea a63f f498 393f
00000010: 8a11 8f3f 923f 8c3f 752c 6d3f 52d8 5d3f
00000020: b174 543f c6b3 873f 9a2a 893f dfff 6f3f
00000030: de33 7e3f 43f0 3f3f b013 803f 73d3 6e3f
0.68533814 0.8077391 1.3040435 0.7249901 1.1177227 1.09569 0.9264596 0.86658204
0.82990557 1.0601737 1.0716126 0.93749803 0.99297893 0.74975985 1.0006008 0.93291396

layer1.1.bias f4 [16]
00000000: 6c14 25bf 9103 cdbe 2431 01bf de66 cebe
00000010: 190b c5be 2e46 d1be e2da d0be 8458 03bf
00000020: ff08 bcbe 1a1a d4be b5bd 9cbe a003 29be
00000030: 6035 acbe 16d4 11bf 3520 acbe 6548 dbbe
-0.64484286 -0.40041783 -0.5046561 -0.40312856 -0.3848503 -0.40873855 -0.40791994 -0.5130694
-0.36725613 -0.41426164 -0.30613485 -0.16505289 -0.33634472 -0.5696424 -0.33618322 -0.4282867

layer1.1.running_mean f4 [16]
00000000: 8b3d 18be eedd e6ba c893 53be b533 89bd
00000010: 6488 35be 164a 96bd 05c6 a5bc ba4f 9d3d
00000020: 521b 7dbe 9d56 80bd 62e7 b23c c4bb db3d
00000030: ec70 b33b 067a 58bd 0a4e 4bbe 074d 813e
-0.14867227 -0.0017613748 -0.20661843 -0.066993155 -0.1772781 -0.073383495 -0.020236025 0.07681222
-0.24717453 -0.0626652 0.021838848 0.10729173 0.005476108 -0.052850746 -0.19853988 0.2525408

layer1.1.running_var f4 [16]
00000000: c56a a03c cbe3 923c 824f a43d 9646 623d
00000010: 909f 933d 719e a83d d606 dd3d 08bc a73c
00000020: 23fc af3c e264 793c 0239 983d 21b6 883d
00000030: 16d4 d23d cc02 8f3c e105 7b3d 5b7e f93c
0.019582162 0.017930886 0.080229774 0.055243097 0.072081685 0.08233345 0.107923195 0.020475402
0.021482533 0.015221806 0.074327484 0.06675363 0.102943584 0.017457388 0.061284903 0.030455759

layer2.0.weight f4 [32, 16, 5, 5]
00000000: 02fc 08bd f0e1 9cbd 948d a6bd eafc f2bd
00000010: 59d4 a63d 11d2 3abd 4c2b 8abd db81 87bd
00000020: dc64 cb3c 1beb c53c aaa8 70bb 6adb 1dbd
00000030: 7e2e c6bb 74de 37bd 91ae ccbc 1c31 b8ba
00000040: eacc cd3c 7f7c 1dbd 73d7 a5bc cdae 793d
00000050: 472b 803b 3fe4 72bc 00b4 fb3a caa2 b63d
00000060: 2a15 853d 0c9d 433d ef7a ab3d 1e6c aa3c
00000070: 811c 37bd 4460 f7bb 89b8 ea3c b191 d83b
00000080: 7cce fe3b d04f 09bd 93bf c0bb dd5a c43c
00000090: 0c3a 17bc ba01 003d 08b7 0dbb 7f55 d83c
000000a0: bdf7 3dbd 0e45 22bd f01a c13b fc4f d83b
000000b0: 89d1 c33d 5ac1 b4bd 0992 79bb ddfe 1ebc
000000c0: 9e97 903b 321e 473d 12e0 84bd 4996 f7bd
000000d0: 82e5 d5bd feda 83bd a5f2 75bd aa6f 83bd
000000e0: 5cef cebc 56ce caba c3da 2bbd 7e88 34bd
000000f0: 370c bbbc c11a c8bb 6eac fd3c 99a1 b0bd
00000100: f123 99bd 6aea 37bd e368 ae3c 5e5c 333d
00000110: 3d01 fabd f21c a9bd 05da 543c 093f 3f3d
00000120: c60b ed3c 1462 e6bb 4bfd 93bd 9a5e 9e3c
00000130: 4aec 9a3d d9da ea3d ef5d db3d 71cc f0bc
00000140: ac34 31bd f51e ea3b 8a8c 9a3d 3b4e 283d
00000150: 046c ccbc 5423 f13c ec48 a0bc 10e8 123d
00000160: e8e1 373c 11e3 95bc 5edf 1cbc 218b fa3c
00000170: f510 83bd e9e7 e7bc 099b 9dbc d4eb 793c
00000180: fa12 35bd 5a7c 3db9 4579 603a ffb9 c53d
00000190: 1b2e 143b 1bbe ba3d ba74 233d b91e 88bb
000001a0: a834 92bd 3fd0 ebbc f4db 7cbd 1d76 d2bd
000001b0: eea2 cdbd 861e c4bd 56fe 393d 556b 94bc
000001c0: d86a 00bc fcdb 9bbd 08b3 94bd 7fbe c33c
000001d0: 72cc 75bc df07 9abd 4e0b 87bd 7f89 3cbd
000001e0: 787f 20bd a313 cdbd 7e35 adbd 8ddc b5bd
000001f0: 1a05 673d 1685 683b 9af8 71bc 2f45 46bc
00000200: ffce 6e3d 9f68 1a3e 3e16 53bd 3e74 dd3c
00000210: c236 e43d f235 d33d 27a8 173e 424b f1bb
00000220: 85a1 f2bc 5fa2 693d a3bb 543c c5ab 233c
00000230: 4476 963d c009 4e3d 15a9 da3c 3f68 a83c
00000240: 2b70 a2bc 7680 c43d 8a53 063e 5841 e93d
00000250: 003e b03c fd39 c1bc 0de9 193d a6ad 1b3d
00000260: c114 7b3d 2672 54bd 106e 15be 1c0b afbc
00000270: 0916 51bb 40d6 b1bc 345e d23b 49c6 c7bc
00000280: 6ccb 383c 9f1e 01bc 45b2 053d e591 25bd
00000290: f263 eb3c e554 be3d 56a3 cabc 8644 5c3d
000002a0: de8c fbbc 78e6 003c 6d92 0f3e 480f f23c
000002b0: 6133 103d 6797 9fbd 4124 803b cdcf b23d
000002c0: cac8 833b ee9c 9ebd ccf0 91bc 6719 533d
000002d0: b94e 2fbd 8c53 c6bd 834f 3fbd afbd d13c
000002e0: 015f 003e e81b c0bd 8ff5 dcb9 047c c13c
000002f0: 9459 1a3d e496 d33d ba4d 363b 652f f43c
00000300: 35d7 e93b 994d a43c b482 d1bb 259e b03d
00000310: 8df5 383b f387 883c 5de8 ae3d 537d 173d
00000320: c8d3 333c a23f 8b3d 2b54 4338 0255 ddbc
00000330: effe 293d 5702 493d 1b2e 373c ec2b 05be
00000340: 9936 20be b6a7 ec3d 86af 8dbd 6fb7 52bd
00000350: 0f71 5abd cde5 34bd 93e5 523d 9185 3abd
00000360: becb b4bd b7d1 6dbd e9f5 cfbd b76b 6bbb
00000370: 0382 1a3d 7c3a 463b d41a 65bd 5def 0dbd
00000380: 57c7 403d da84 4dbc fabd e03d aaf7 e63d
00000390: 41fd 173e d1e1 b6bd ea0a df3d 200b ca3d
000003a0: a4a2 2b3e c792 363d 44ba c2bd f616 373e
000003b0: 4f7e 1d3d 55ce 1eba 486b 9ebd 15a2 1bbe
000003c0: 0f8c bc3d b5ae 1b3a f4eb 9bbd 51e4 d2bd
000003d0: cda7 b7bc 3b26 d6bd fee7 b9bd 27ba fbbd
000003e0: 57df 53bd 261c cf3d f0a2 533d 4695 1f3d
000003f0: f69a 6cbd 98d6 28be 444e e3bd 712e d63d
-0.03344346 -0.07660282 -0.08132473 -0.11864646 0.08145971 -0.04561049 -0.067465395 -0.06616565
0.024828367 0.024159959 -0.0036721625 -0.038539328 -0.006048023 -0.044889882 -0.024985583 -0.0014052722
0.025122125 -0.038448807 -0.020244336 0.06095772 0.003911409 -0.014824926 0.0019203424 0.08917768
0.06498177 0.047757193 0.08373057 0.020803507 -0.044704918 -0.0075493176 0.028652446 0.0066091646
0.0077760797 -0.03352338 -0.0058822124 0.023969108 -0.009230148 0.031251647 -0.0021623988 0.026407955
-0.04637884 -0.039616637 0.005893104 0.0066013318 0.0956145 -0.088259414 -0.0038081429 -0.009704319
0.0044126054 0.04861278 -0.064880505 -0.120892115 -0.10444166 -0.06438254 -0.060045857 -0.064177826
-0.02526062 -0.001547287 -0.041956674 -0.04407548 -0.022832973 -0.006106705 0.03096601 -0.08624572
-0.074775584 -0.04490129 0.021290248 0.04378926 -0.122072674 -0.08257474 0.012991433 0.046690974
0.028936278 -0.007030735 -0.07226046 0.019332219 0.075646 0.11467523 0.10711276 -0.02939436
-0.043263122 0.0071448036 0.07546337 0.04109023 -0.02495385 0.029435791 -0.019566022 0.035865843
0.011223294 -0.01829675 -0.009574739 0.03058392 -0.06399719 -0.028308826 -0.019238966 0.01525398
-0.04420755 -0.00018070769 0.00085629924 0.096546166 0.0022610489 0.09118291 0.03990624 -0.004154053
-0.0713895 -0.028785823 -0.0617332 -0.102764346 -0.10040842 -0.095761344 0.04540857 -0.018117586
-0.007837974 -0.07610318 -0.0726071 0.023894547 -0.015002357 -0.075210325 -0.06593953 -0.046029564
-0.039184064 -0.10013511 -0.084574685 -0.08879957 0.05640135 0.0035479716 -0.014768744 -0.012101456
0.058302876 0.15078972 -0.051534884 0.027032968 0.11143257 0.103130236 0.14810239 -0.0073637078
-0.029618034 0.057039615 0.012984189 0.0099896835 0.07346776 0.050302267 0.026691953 0.02055752
-0.019828876 0.095948145 0.13117805 0.113894165 0.021513939 -0.023587221 0.03757577 0.0380074
0.06129909 -0.051866673 -0.14592767 -0.021367602 -0.0031904003 -0.021708608 0.0064199213 -0.024386542
0.011278968 -0.007880836 0.032640714 -0.04042234 0.028734181 0.09293536 -0.024736088 0.053776287
-0.03070682 0.007867448 0.14020701 0.029548302 0.03520525 -0.077925496 0.003910572 0.08731041
0.0040217387 -0.07744776 -0.017815016 0.051537897 -0.042799685 -0.09683904 -0.046706688 0.025603143
0.12536241 -0.09380323 -0.00042144625 0.023618706 0.037683085 0.103315145 0.0027817325 0.029807756
0.0071362504 0.020056533 -0.006393755 0.08623914 0.0028222532 0.016666388 0.085404135 0.036984753
0.010975786 0.06799246 4.657001e-05 -0.027018074 0.04150289 0.049074497 0.011180426 -0.13005036
-0.15645827 0.11555426 -0.06918244 -0.051444467 -0.053330477 -0.044164468 0.05148847 -0.045537535
-0.08827923 -0.058061328 -0.101543255 -0.0035922357 0.037721645 0.0030247262 -0.05593379 -0.034652103
0.047065105 -0.012543881 0.10973735 0.11277707 0.14842702 -0.0892979 0.108907536 0.09865403
0.16761261 0.04457357 -0.095081836 0.17879853 0.038450535 -0.00060579675 -0.07735306 -0.15198548
0.092064016 0.0005938814 -0.07613364 -0.10297454 -0.02241888 -0.10456511 -0.09077452 -0.12291365
-0.051726665 0.10112791 0.05166906 0.038960718 -0.05776497 -0.16488111 -0.11098912 0.10458077

layer2.0.bias f4 [32]
00000000: 15f5 2dbd b982 b4bb 66b0 0fbd 2f0b 833c
00000010: 8ca0 033c 36af bf3b 1d18 283d c37f 08bd
00000020: 9a08 cabc f53c 8f3c cc36 4abd c30e fabb
00000030: 856c c4bc b382 2f3c 76b3 353d 7667 4ebc
00000040: 3150 9cb9 bc6d fabb 6187 833c 08db 39bd
00000050: 4f7e bb3c 8850 edbc 1c68 44bd 8caf 36ba
00000060: 4094 4dbc ff1b 853c 93c9 3abd d4e5 393c
00000070: 3505 053d 6229 e4bc 0f39 3bbd fe53 b23c
-0.042470057 -0.0055087474 -0.035080336 0.015996544 0.008033883 0.005849744 0.04103862 -0.033324968
-0.024662305 0.017485121 -0.049368665 -0.0076311543 -0.023977527 0.0107123135 0.0443606 -0.012597909
-0.00029814386 -0.007642476 0.016055765 -0.0453749 0.022887377 -0.028969064 -0.04795085 -0.00069689075
-0.012547553 0.016248701 -0.045602392 0.011346299 0.03247567 -0.027851764 -0.045708712 0.021768566

layer2.1.weight f4 [32]
00000000: 4986 903f 9614 8e3f be64 923f 0490 943f
00000010: 2719 8a3f a745 843f 53d2 793f 0701 953f
00000020: 3ac5 8a3f f1e5 8a3f 4a7f 933f ad66 9c3f
00000030: 0427 883f 749b 873f dc3f 8c3f b890 8e3f
00000040: 64c8 8b3f 5046 893f 4992 833f b4d5 913f
00000050: 6c7d 893f 4864 8e3f 4f0f 953f 2694 a03f
00000060: 96cf 9a3f 3f77 793f b105 773f 73f2 973f
00000070: c831 973f d841 9a3f 4e35 813f ec2c 9a3f
1.129098 1.1100032 1.1436994 1.160645 1.0788926 1.0333756 0.97586554 1.1640939
1.0841439 1.0851423 1.152322 1.2218834 1.0636907 1.0594316 1.0956988 1.1137915
1.0920529 1.0724583 1.0279018 1.1393342 1.0741401 1.1124353 1.1645297 1.2545211
1.20946 0.9744758 0.9649306 1.1870865 1.1812067 1.2051344 1.0094392 1.2044959

layer2.1.bias f4 [32]
00000000: 101d c0be 384d bcbe 9d7f 63be f23a e8be
00000010: 2fdd 8cbe f51f 83be 67fe b6be bf09 87be
00000020: d5e2 e1be 31ab bcbe dc5c 82be cfb4 bbbe
00000030: f88c 98be b8b2 afbe b8b0 adbe 9654 a1be
00000040: 7838 abbe 3083 8ebe 71f4 86be 4b14 c6be
00000050: 06b9 04bf 1178 2cbe 8640 95be 1b37 d9be
00000060: 0e74 abbe 9e44 95be 8544 a9be 074a 3cbe
00000070: 5887 c6be 4127 c1bd 5ea1 87be 6c41 99be
-0.37522173 -0.36777663 -0.2221665 -0.45357472 -0.275125 -0.2561032 -0.3574097 -0.26374623
-0.44118372 -0.3684936 -0.2546147 -0.36661384 -0.2979505 -0.3431604 -0.33923888 -0.31509846
-0.3344152 -0.27834463 -0.2635837 -0.38687357 -0.51844823 -0.16842677 -0.2915079 -0.42424855
-0.3348698 -0.29153913 -0.3306009 -0.18387614 -0.38775134 -0.09431315 -0.264903 -0.29932725

layer2.1.running_mean f4 [32]
00000000: 14c0 04bf f3d0 55be 01b9 27bf 74df 31bf
00000010: 42aa 9abe 5f86 66be a0c6 73be 7f2f 3abf
00000020: 409b f8be 598f d9be f8c6 7abe 8630 39be
00000030: 72ee 24be d6ee 64be e704 f1be 7263 ffbe
00000040: ffc4 02bf 2e8a 20bf f9d0 f1bd fbe9 19bf
00000050: 9ef5 17bf a3c5 4abf 9c80 0abf 635c cfbe
00000060: 3a36 743c 0d25 fbbe 5959 bebe 9913 ddbe
00000070: 8fdb 353d a06c d9be 2777 a5be d3aa d7be
-0.5185559 -0.20880489 -0.6551667 -0.6948159 -0.3020802 -0.22512196 -0.23806238 -0.72728723
-0.48555946 -0.42492178 -0.24489963 -0.18084916 -0.16106585 -0.22356734 -0.47074053 -0.49880558
-0.5108184 -0.62710845 -0.118074365 -0.6012265 -0.5935916 -0.7920782 -0.5410249 -0.40500173
0.014905507 -0.49051705 -0.37177542 -0.43179014 0.04439884 -0.42465687 -0.3231747 -0.42122516

layer2.1.running_var f4 [32]
00000000: f538 b33f 4edb a23f d679 b23f 7b9f ce3f
00000010: 3f02 eb3f 9e62 cb3f b8aa 793f 67a7 d23f
00000020: e01e 943f db9a 8c3f b09a 8e3f 3fa3 cf3f
00000030: 1fd0 903f b06b 873f 9e2c e53f b427 b23f
00000040: d32d 983f 17c5 6d3f 7db0 6c3f 61f1 c23f
00000050: de5e 9c3f 8468 e73f af54 d43f aab1 df3f
00000060: 1179 a53f aa17 633f f629 8c3f bf38 0f40
00000070: eeb1 803f 5aa2 0140 e258 0840 fec0 a93f
1.4001757 1.2723176 1.3943431 1.614242 1.836006 1.588947 0.9752612 1.6457337
1.1571922 1.0984758 1.1140957 1.6221694 1.1313514 1.0579739 1.7904241 1.3918366
1.1888984 0.9287886 0.924568 1.5229913 1.2216451 1.8078771 1.6588343 1.7476094
1.2927572 0.88707983 1.0950305 2.2378385 1.00543 2.0255342 2.130425 1.3262022

fc.weight f4 [10, 1568]
00000000: 7911 89bd 7de3 95bd 6aee 81bc d020 2dbd
00000010: a6c6 38bd d797 f6bd 0a46 3bbd 6967 59bd
00000020: 6825 933a fbcb 78bc a752 103c b1c9 8abc
00000030: 384c 50bb c59d 16bd 723b 563d a8a9 813c
00000040: aad6 0d3d 00e4 a9bd 8182 9ebc 8bb4 0f3d
00000050: 83d9 8d3d 50fe 133d e2ff 273d 8ad6 2b3d
00000060: 2e0c c7bd aca3 7a3c f075 413d 0057 6bbb
00000070: 9dcf 463d 1e1a bb3d a278 bdbd 20d3 8e3c
00000080: ee88 01bd b4fb ae3c a638 433d 38e2 ed3d
00000090: 7100 583d 8366 a7bd 6979 c03c 2465 63bd
000000a0: 957c 84bd 2981 39bc 171f ba3c 24fa bebc
000000b0: a0ee 5a3d 3702 9ebd 3124 0fbe cb0e 1cbe
000000c0: d7d8 9fbd a6ab 073d fbd3 f0bb 818e 7cbc
000000d0: bd07 013d 2668 143d 475f 523d b190 e9bc
000000e0: 3ad1 b43c 0285 063e 5ee9 783d e199 a63c
000000f0: b7b7 313c afd8 9f3b 3386 8dbd da8b 4bbd
00000100: 83f5 b6bd ddd9 a4bd 545c 7ebd dc6e 813d
00000110: 8a86 adbc d2c2 703c 968a 3cbd 5a16 27bd
00000120: 077d 803c 9fec 343d 7132 14bd c306 c6bd
00000130: 2825 363d 9928 83bd 2796 61bc 4d43 0bbc
00000140: c0ed b7bc cf6e 983d f2fd 9e3d e96b 413d
00000150: 3b9d cebd ca7a 44bd add3 673c 8715 dc3c
00000160: 2e0f 043d d191 733d 6bbc 2e3d f756 99bd
00000170: 3287 093d d274 193d 1913 803d b42a 1abd
00000180: 56fd 42bd d805 a4bd 0af8 463d 9033 99bb
00000190: 6cc8 b3bc cbc7 b5bd 40a1 7fbc a9d0 3c3c
000001a0: 5e1c e23c 9673 2b3d cc32 c3bb 8bf7 69be
000001b0: e843 e0bd e6a7 fcbc 3571 debd ac9d 5d3d
000001c0: 0c87 983d 6cdd 29bc 0fa4 94bd 3f0e ca3d
000001d0: 0757 aa3b 5888 e7bc c5a3 3d3b 719f 173d
000001e0: a09e 363d 08fa f3bc 8dbc ba3d 076b 2bba
000001f0: b3da 173d e325 8c3d 74f9 e8bc f1b7 c23d
00000200: dbef 6b3d 0d6c 023e 9680 ff3c 7435 aa3b
00000210: ea68 b03d d7a2 803d 2770 313d dbbd 003e
00000220: d5db 053b f573 d0bd dfb3 143d 81c3 4f3c
00000230: 1a1f ea3c 91ef e83c b0ac 69bd d216 54be
00000240: 0a19 44be 525c 50bd b4e8 8e3c f573 35bd
00000250: a556 803c 45eb d43b 6378 6fbc 66d8 aa3c
00000260: b4e2 0bbc 0965 e6bb e9ec 013c 3f6a a83d
00000270: 4c51 453d dc3a 6ebc e3ff 3abd 94fe a7bd
00000280: c1eb 2abd 402f 853c 2cb3 d43c 4111 58bd
00000290: 3728 39be dae6 e3bd e13a f1bd f924 6ebd
000002a0: a080 7f3c f805 0dbe 7ce3 43bd d5aa 4a3d
000002b0: dacc 263d 4087 e2bc 84bb b83d 194d ab3b
000002c0: 4b03 66bd ae42 b3bd 3ff0 403d 19d4 c03c
000002d0: e980 613d 03e2 903d b824 373d a6a7 0f3d
000002e0: dff1 d33d f110 9e3b 6d38 023d 2f7c 773d
000002f0: f9af 413d 1e2f c53c c5ed 893c 78dc 693d
00000300: a0b2 a4bd f045 de3c 8fba 953c deac 45bd
00000310: dbe1 0dbd 9e4e a0bd 4d2a a4bd 91b9 2ebd
00000320: d655 fdbc 0cb3 67bd e199 cf3b fad8 2fbd
00000330: e311 3dbd 3539 90bc dade 01bd 3aab adbd
00000340: c9de 8abc 58a1 b0bd d8df 593c e7da 733c
00000350: 8791 2a3b 5278 21bd 8d21 38bd 62e7 6e3d
00000360: a384 90bd 9b91 433c 3806 373c bebd 88bd
00000370: c06e f1bd f24e 0bbe 4566 8b3c 5305 cabc
00000380: 27c8 01bc 740a c8bd 3fa8 593a 746a 043d
00000390: 119a 9b3c 32b4 09bd 1616 a3bd 8d10 2dbd
000003a0: 096d 55bd da11 0cbc b6d7 083d 0864 3d3d
000003b0: 0065 56bd 2845 a0bd bc01 acbd dfa2 8cbe
000003c0: 352f f8bd 6e31 78bd 856e 423d 77ba 393d
000003d0: 8b16 503c 9b42 263c 3a8b e6bc 22d5 903d
000003e0: ddbc 893a d41f 8d3c 302f c8bc ec88 8a3c
000003f0: dd51 b2bc dab0 65bb 7e15 78bd e1ed 1fbb
-0.06692786 -0.073187806 -0.015860755 -0.04226762 -0.04511132 -0.1204068 -0.04572109 -0.053077135
0.0011226358 -0.0151853515 0.008808768 -0.016941877 -0.0031783711 -0.036771554 0.052302785 0.015827969
0.034628548 -0.08295441 -0.019349338 0.03508429 0.06926253 0.036131203 0.041015513 0.041952647
-0.0971912 0.0152978115 0.047231615 -0.003591001 0.04853784 0.09135841 -0.092515245 0.017434657
-0.031624727 0.021360256 0.047661446 0.116154134 0.052734796 -0.081738494 0.023495393 -0.055516377
-0.06469075 -0.011322298 0.022719903 -0.023312636 0.053450227 -0.07715266 -0.1397865 -0.15240018
-0.07805031 0.03312268 -0.007349489 -0.015414835 0.03150152 0.036232136 0.051360395 -0.028511377
0.022072423 0.13136676 0.06076943 0.020337047 0.010847024 0.0048781256 -0.06910362 -0.04969392
-0.089335464 -0.080493666 -0.06209977 0.06319973 -0.021182317 0.014694886 -0.046030603 -0.0407928
0.015684618 0.044170972 -0.036180917 -0.096692584 0.04446903 -0.06404228 -0.013768709 -0.0084999325
-0.022452235 0.0744301 0.0776328 0.04722205 -0.10088583 -0.047968663 0.0141495885 0.026865734
0.03224104 0.059465233 0.042660158 -0.0748729 0.033576198 0.037464924 0.062536426 -0.03763838
-0.04760488 -0.08008927 0.048576392 -0.004675336 -0.021946155 -0.08875998 -0.01560241 0.011524358
0.027601417 0.04185828 -0.005956983 -0.22848336 -0.10950452 -0.030841779 -0.10861436 0.054105446
0.07447633 -0.0103677325 -0.07257854 0.098659985 0.0051983627 -0.028263256 0.0028936726 0.03701729
0.04458487 -0.02978231 0.091179945 -0.00065390806 0.037073802 0.06843164 -0.028439261 0.0950774
0.05760179 0.1273653 0.031189244 0.0051943604 0.08613761 0.06281059 0.043319847 0.12572424
0.002042522 -0.10178367 0.03630435 0.012680889 0.028579284 0.028434547 -0.057049453 -0.2071183
-0.19150177 -0.050869294 0.017444946 -0.04430004 0.015666315 0.006497773 -0.014616105 0.02085514
-0.008537937 -0.0070310873 0.007930019 0.0822339 0.048173234 -0.0145404 -0.04565419 -0.08202854
-0.04172874 0.016257882 0.025964342 -0.05275083 -0.18081747 -0.11128016 -0.117788084 -0.05814073
0.015594631 -0.13771808 -0.047824368 0.049479324 0.040722705 -0.027652383 0.09020141 0.0052276966
-0.056155484 -0.087529525 0.047104117 0.023538636 0.05505458 0.07074358 0.044712752 0.03507199
0.103488676 0.004823797 0.031792093 0.060421165 0.04728696 0.024070319 0.01683701 0.05709502
-0.080418825 0.027132958 0.018277435 -0.048260562 -0.03463922 -0.07827495 -0.08015881 -0.04265744
-0.030924719 -0.056567237 0.0063354825 -0.042931534 -0.046159636 -0.017605403 -0.03170667 -0.084799245
-0.016951935 -0.08624524 0.013297997 0.014883733 0.0026026682 -0.039421387 -0.04495387 0.058326133
-0.070565484 0.0119365705 0.011170916 -0.066768155 -0.11788702 -0.13604334 0.01701654 -0.024660742
-0.007921255 -0.09767619 0.00083029637 0.032328084 0.018994363 -0.033619113 -0.07963197 -0.042252112
-0.052105937 -0.008549178 0.033408843 0.046237975 -0.052342415 -0.078256905 -0.08398768 -0.2746801
-0.12118379 -0.060594015 0.04746868 0.045343842 0.012700687 0.010147716 -0.02814256 0.07071902
0.0010508556 0.01722709 -0.024436563 0.016910993 -0.021767551 -0.0035048039 -0.06056737 -0.0024403261

fc.bias f4 [10]
00000000: 117f 6a3c 3008 b03d 6106 2c3c 5d39 f9bb
00000010: ced0 1cbd 481b dbbb bc45 89bc f57b 343b
00000020: c6bc 28bd 14c7 b3bb
0.014312522 0.08595312 0.010499568 -0.007605715 -0.03828507 -0.006686602 -0.016756885 0.0027539704
-0.041195653 -0.0054863784
